net.pkl (torch_old, 43036 bytes, 32 tensors)

weight f4 [64, 32]
000000 f6 98 2c 3f 7b b3 60 3e 9f e4 4d bf c0 bf 80 bf
       0.674209 0.21943466 -0.80426973 -1.0058517
000010 a0 ee 61 be e4 be 8c 3f c2 a5 c1 3f c5 66 8e be
       -0.22063684 1.0995755 1.512871 -0.27812782
000020 f8 79 df bf 59 77 37 bf 68 7a 8e 3f 4a bb a6 3f
       -1.7459097 -0.71666485 1.1131105 1.3025906
000030 8b ea 63 be 15 61 98 bf 8b d2 3c bf 00 64 25 3f
       -0.2225744 -1.1904627 -0.73758763 0.6460571
000040 dc c2 99 3c 53 c3 5e bf 71 e1 7a bf 5f 84 77 3e
       0.018769674 -0.8701679 -0.98000246 0.2417159
000050 df 9b 98 3f 90 bb 33 3f d3 15 5b bf 25 89 bb bf
       1.1922568 0.7020807 -0.85580176 -1.4651228
000060 35 65 7d be 70 6d b2 3f 0e 5b 9c 3f b0 83 4c bf
       -0.24745639 1.3939648 1.2215288 -0.7988844
000070 0b e4 bd bf 50 0e 6f be ce f9 61 3f 15 a5 50 3f
       -1.4835218 -0.23345304 0.88271797 0.81501895
000080 bb 03 62 be ff 3b f6 3e bd 2e f4 3d aa 32 3f bf
       -0.22071736 0.48092648 0.11922977 -0.7468668
000090 a8 2b 14 bf bd 4f 00 bf 85 e2 98 3d 27 58 53 3f
       -0.57879114 -0.5012167 0.0746508 0.82556385
0000a0 f0 24 3d 3f ef 73 77 3d 34 cf cc be f0 b0 9f bf
       0.7388449 0.060413297 -0.40001833 -1.2475872
0000b0 69 b3 01 bf 2f db 52 3f f4 cd ef 3e 76 38 0d 3f
       -0.50664383 0.823657 0.46836817 0.5516428
0000c0 81 ca 5e 3c 3a 58 93 bf 7d 11 0c bf db a8 fd be
       0.013598085 -1.15113 -0.54714185 -0.4954289
0000d0 7c 2e e4 bd 3f b6 06 3f 1c db 07 3f c1 63 9d 3e
       -0.11141679 0.52621835 0.5306871 0.3074017
0000e0 1a 47 29 be 78 da 9b bf d0 03 23 bf 76 e9 9c 3e
       -0.1653103 -1.2176046 -0.6367769 0.30646867
0000f0 28 0f 19 3f de 3c 5d 3f aa 75 2b 3e 10 d1 0e bf
       0.5978875 0.86421 0.16744104 -0.55787754
000100 23 2f ab 3e 9d f7 10 3f 91 9b 68 3f 65 a7 0d 3e
       0.334344 0.5662783 0.90862375 0.13833387
000110 81 e9 59 3d 02 11 78 3e fe 64 ee bd 10 af b1 be
       0.053201202 0.24225238 -0.116403565 -0.34703875
000120 67 3e 1d be 91 14 c2 3e 0a fd 8d 3f 8a fe 34 3f
       -0.15355836 0.37906316 1.1092846 0.70700896
000130 81 44 03 3f 4b 6f c0 3e 81 b4 98 3e 5c 89 51 3f
       0.51276404 0.3758491 0.29825214 0.8185022
000140 1d 62 db bd 53 ea 93 3e af 9c 80 3f 50 06 85 3f
       -0.10712073 0.28889713 1.0047816 1.0392551
000150 3a 4b ba 3e 96 bc 5b 3d 09 5b 80 bd 76 cb e4 be
       0.36385518 0.053646646 -0.062673636 -0.44686478
000160 b8 ce e1 be 58 d3 16 be 12 d1 48 3e 97 1f a1 3d
       -0.44103026 -0.14729059 0.19611004 0.078673534
000170 bd 1d 91 3e 14 86 2e 3f 2d a8 ef 3e 05 a8 30 3d
       0.28343 0.68173337 0.46807995 0.043128986
000180 4b ef 3b 3f 31 1f 62 bf 4b 78 53 be 02 56 c6 3f
       0.7341201 -0.88328844 -0.20651357 1.5494998
000190 f5 cd 98 bf f4 4f c7 3e aa e4 b8 3f 91 64 dd bf
       -1.1937853 0.38928187 1.4444783 -1.7296315
0001a0 a5 3d 0f 3f f5 d1 56 3f 3c cc f0 bf 60 bf 55 3f
       0.5595344 0.8391412 -1.8812327 0.8349514
0001b0 7d 11 3d 3f 65 9d 8b bf 66 57 e0 3f f8 7b e4 be
       0.7385481 -1.0907408 1.7526672 -0.4462583
0001c0 58 12 c2 3d 88 06 a3 3f 66 de 9a bf cb fe 6c 3f
       0.09476155 1.2736368 -1.2099121 0.92576283
0001d0 d9 06 81 3f b3 d4 d6 bf 67 a3 52 3f 20 e9 80 3e
       1.0080215 -1.6783661 0.8228058 0.2517786
0001e0 e0 fc dd bf 74 9e 91 3f 99 4e 07 3e ec 58 5d bf
       -1.7342796 1.1376481 0.13213576 -0.8646381
0001f0 72 a7 ff 3f 8c f4 b8 be 75 45 6c bf 28 a0 8a 3f
       1.9972975 -0.36124074 -0.92293483 1.0830126
000200 33 ab 6d 3f d5 0c 09 bf 12 ba 8e bf 41 66 ac 3f
       0.92839354 -0.53535205 -1.1150534 1.3468705
000210 f0 27 92 3e c0 aa ca bf 19 89 21 3f f3 84 92 3f
       0.28546095 -1.5833359 0.6309982 1.1446823
000220 9a f3 9f bf c3 85 b3 be 2a 74 b5 3f 6d 40 1a bf
       -1.2496216 -0.3506299 1.4176075 -0.60254556
000230 09 8a e9 be 08 cd a7 3f 10 cc cb be 82 30 41 bf
       -0.45613125 1.3109446 -0.39804125 -0.7546464
000240 04 cb b2 bb b4 96 cd 3f e1 bc 6e bf cb 7d 38 bf
       -0.0054563303 1.6061616 -0.93256956 -0.72066945
000250 8e 9f e2 3f b8 8b f4 bd 88 02 ca bf fc 12 76 3f
       1.7704942 -0.11940712 -1.5782022 0.9612272
000260 6f 6e 28 3f 7c 7b b9 bf 14 3b a0 3e 29 7a 95 3f
       0.6579351 -1.449081 0.31295073 1.1677905
000270 9b d7 5c bf 0e 58 11 be 8f 52 9e 3f 81 24 48 bf
       -0.8626649 -0.14193746 1.2368945 -0.781807
000280 ad a6 47 3f e8 52 9e be bc 75 be bf 98 37 bd 3e
       0.779887 -0.30922627 -1.487968 0.36956477
000290 81 77 bd 3f 1a 95 23 bf cb 6d cd bf 74 e7 00 3f
       1.4802095 -0.63899386 -1.6049131 0.5035317
0002a0 db 28 b5 3f a7 63 ba be 4b eb b7 bf b7 38 05 3f
       1.4153093 -0.36404154 -1.4368681 0.52039665
0002b0 5b 57 be 3f fe ff 83 bf d7 b3 7d bf f1 6a da 3f
       1.4870409 -1.0312498 -0.9910254 1.7063886
0002c0 98 a9 f6 bb 33 17 d8 3f 1f 95 b3 be 90 0a cc bf
       -0.0075275414 1.688208 -0.35074708 -1.5940723
0002d0 6e 0a 58 3f 17 da d1 3f 77 07 2a bf 73 be b8 bf
       0.84390914 1.6394681 -0.6641764 -1.443312
0002e0 21 c6 f3 3e 70 be b2 3f 25 44 93 be 5a dd bd bf
       0.47612098 1.3964367 -0.28762928 -1.4833176
0002f0 d7 f1 49 3f f0 ed b4 3f 25 2b d8 bf b6 1b e4 bd
       0.78884643 1.4135113 -1.6888167 -0.11138098
000300 85 a5 38 3f f2 4d 12 3e 4c da a9 bf 50 8e 47 bf
       0.7212756 0.14287546 -1.3269744 -0.77951527
000310 5b 8c 7d 3f 61 16 cb 3f c7 11 5d be 1a 87 04 c0
       0.9904229 1.5866205 -0.21588813 -2.070746
000320 d1 d3 06 bf 1f 95 ff 3f aa 01 41 3f 17 92 c9 bf
       -0.52666956 1.9967383 0.75393164 -1.5747708
000330 a0 ad 0e bf a4 89 77 3f 9a f3 44 3f ac ac da be
       -0.5573368 0.966944 0.76934206 -0.42709863
000340 01 27 b2 bb e8 9b ae 3f 85 66 d7 3e d2 ab 9e bf
       -0.0054367785 1.3641329 0.42070404 -1.2396185
000350 13 ad 8d bf e2 2b 38 3f 3d 9a e9 3f 76 59 49 3e
       -1.1068443 0.7194196 1.8250195 0.19663033
000360 2f 3e 07 c0 68 55 4b bf 1b a8 e9 3f 4e 6f 26 3f
       -2.1131704 -0.79427195 1.8254427 0.6501359
000370 0a 2a b1 bf 28 bc 00 bf fb 53 0c 3f 03 64 5a 3f
       -1.3840954 -0.50287104 0.54815644 0.85308856
000380 ee 90 3a 3f ce 87 d5 3e 08 f4 4a bf 3d 11 b9 bf
       0.72877395 0.41705173 -0.7927861 -1.4458386
000390 07 f7 30 bf 5e f7 87 3f a4 f7 e9 3f c4 26 4e 3f
       -0.69126934 1.0622365 1.8278699 0.805279
0003a0 af 21 9a bf 9b 74 e1 bf 97 17 28 bd af 59 c6 3f
       -1.204153 -1.761371 -0.041038122 1.5496119
0003b0 e5 34 65 3f 76 fa 24 bf 81 13 8b bf bc 69 0e bf
       0.89533836 -0.64444673 -1.0865327 -0.5563009
0003c0 38 d3 49 bc a2 9b 90 3f 49 4c 81 3f 92 1c 10 be
       -0.012318425 1.1297495 1.0101405 -0.14073399
0003d0 a4 fa aa bf ce 60 bb bf c5 f9 33 3e 68 6f e8 3f
       -1.335774 -1.4638917 0.17575748 1.8158998
0003e0 27 60 b8 3f aa 2d 09 bf 73 a3 e4 bf 48 ea 16 bf
       1.4404343 -0.535853 -1.7862381 -0.58951235
0003f0 1f f8 8f 3f 01 92 76 3f 7f db f9 3d 54 c9 58 bf
       1.1247596 0.96316534 0.12200069 -0.846822

weight f4 [2, 2, 3]
000000 0c 97 9e 3f 68 25 ce be ff 61 95 be 15 12 04 3f
       1.2389846 -0.40262914 -0.29176328 0.5159009
000010 8c db ad be 45 fd 42 40 ca 86 3e 40 ad cc 20 3d
       -0.33956563 3.0467083 2.9769769 0.039257694
000020 64 68 0a 3f 0d 64 34 3f 5c ea 34 3f a8 7f 4b bf
       0.5406554 0.70465165 0.70670104 -0.7949166

weight f4 [2]
000000 86 d0 cb 3f bc 22 c8 3f
       1.5923011 1.56356

bias f4 [2]
000000 5d 0a ec be 08 8c 6d be
       -0.46101657 -0.23197949

running_mean f4 [2]
000000 44 0c 74 40 58 f8 81 40
       3.8132486 4.0615654

running_var f4 [2]
000000 81 27 0a 44 6c 5f ea 43
       552.61725 468.74548

weight f4 [2, 2, 3]
000000 7d f3 28 bf 00 a3 cf 3f 41 ac 98 be f4 ba a9 be
       -0.65996534 1.6221619 -0.2981892 -0.33150446
000010 9f 39 95 3f 0a be 28 bf fa 19 d6 be 7d 81 aa 3f
       1.165821 -0.65914977 -0.41816694 1.3320767
000020 e8 3a 07 bf c7 ff fb be 0f d2 d5 be 9d 2f c8 3f
       -0.5282426 -0.4921858 -0.41761824 1.563953

weight f4 [2]
000000 cf c9 c1 3f 98 a0 d0 3f
       1.5139712 1.6299009

bias f4 [2]
000000 9a da 12 bf 12 73 94 be
       -0.5736481 -0.28994042

running_mean f4 [2]
000000 38 7d af 3e e6 3f e6 3e
       0.34275222 0.44970626

running_var f4 [2]
000000 a6 35 dd 40 5e 3a ee 40
       6.912799 7.444625

weight f4 [2, 2, 3]
000000 18 ab cd bf 40 2d ae 3f 46 8d d1 3e 37 85 9e 3f
       -1.6067839 1.3607559 0.40928096 1.2384404
000010 2b 6e af bf f8 fa d0 3e f1 79 91 3f cd 46 49 3f
       -1.3705496 0.40816474 1.1365339 0.7862366
000020 eb 4c 64 bf 07 bc d4 3f b3 75 fa be a8 09 bf be
       -0.8917987 1.6619881 -0.48917922 -0.37312055

weight f4 [2]
000000 60 ac 89 3f 23 79 11 40
       1.075573 2.2730186

bias f4 [2]
000000 e9 45 89 3d 7b 73 d9 3e
       0.067027874 0.42470917

running_mean f4 [2]
000000 6a ae 29 3e 81 c7 27 3f
       0.1657044 0.65538794

running_var f4 [2]
000000 27 d7 fc 40 08 34 47 41
       7.9012637 12.450203

weight f4 [2, 2, 3]
000000 74 07 bf 3f 67 d0 37 3f 7f 85 83 be f1 3f 7f 3e
       1.492415 0.7180237 -0.25687787 0.24926735
000010 e0 30 93 3f c5 ef ad 3f ef f0 46 3f 00 bd a7 3f
       1.149929 1.3588797 0.77711385 1.3104553
000020 cd 9e 2a bf 2b d9 e0 be 89 5e a5 3f e8 72 c8 3f
       -0.6664856 -0.43915686 1.2919475 1.5660067

weight f4 [2]
000000 37 37 a6 3f 86 23 be 3f
       1.29856 1.4854591

bias f4 [2]
000000 65 53 4b bf b5 c8 23 3f
       -0.79424125 0.6397813

running_mean f4 [2]
000000 50 90 27 40 2a 8c 0d 40
       2.6181831 2.21168

running_var f4 [2]
000000 0d 2d a5 41 63 43 c3 41
       20.646997 24.407904

weight f4 [2, 2, 3]
000000 5f e6 7e bf 2e 35 4b bf 40 c2 8f bc 99 ee f3 3d
       -0.9957027 -0.7937802 -0.01754868 0.11910743
000010 cd 7e 0d 40 ae 71 e2 be f1 32 00 be c0 98 e0 3f
       2.2108643 -0.44227356 -0.12519433 1.7546616
000020 6b a8 82 3f f7 9c a6 bf 18 f8 ae bf 63 58 ac 3d
       1.0207647 -1.3016652 -1.3669462 0.08415296

weight f4 [2]
000000 a1 20 d3 3f e5 35 72 3f
       1.6494333 0.94613487

bias f4 [2]
000000 14 cf ac be 96 15 d9 3f
       -0.33751738 1.6959713

running_mean f4 [2]
000000 1c 38 4c 3f c0 15 85 bf
       0.79773116 -1.0397263

running_var f4 [2]
000000 8c 9e a1 40 2e f1 a1 40
       5.050604 5.060691

weight f4 [2, 2, 3]
000000 aa 61 59 3f ec 06 6c 3f a2 d6 bc 3f 7b 67 7e 3c
       0.8491465 0.9219806 1.4753001 0.015527601
000010 8c cf cc 3f 53 1a 44 3f a2 3b 22 bf d5 9a b5 bf
       1.6000838 0.7660267 -0.6337224 -1.4187876
000020 b1 a1 8a bf e7 c7 98 be 2e a8 fc 3f 01 2a 95 3e
       -1.0830594 -0.29840013 1.9738824 0.2913361

weight f4 [2]
000000 99 75 9f 3c 3b fa f2 3c
       0.019465255 0.029660335

bias f4 [2]
000000 fa 63 ed 39 2b d6 46 3d
       0.0004527865 0.04854409

running_mean f4 [2]
000000 26 be b6 40 20 e2 fe 3f
       5.7107115 1.9912758

running_var f4 [2]
000000 8f 71 a1 40 99 48 51 41
       5.045112 13.080224

weight f4 [32, 64]
000000 46 ea fd 3e db 2d b1 3d 72 85 ef 3e 66 c9 f9 be
       0.495928 0.08651324 0.46781498 -0.48786467
000010 9e a9 ef 3e bc 74 9b be 2b d7 04 3e eb 99 29 3e
       0.46809095 -0.303625 0.12972705 0.16562621
000020 03 ba 28 be 9a 33 5c 3e 4d d7 8a 3e 1c 87 49 bf
       -0.16477208 0.2150406 0.27117386 -0.78721786
000030 bf b1 ff 3e 5b 9b 2e bf 61 09 8d 3e ba 09 53 3f
       0.49940297 -0.68205804 0.27546218 0.82436717
000040 12 ee ae 3f 3c 92 82 be f0 52 53 bc e6 a9 86 bd
       1.3666403 -0.25502193 -0.012898192 -0.06575374
000050 b8 0d 86 3e ca d2 d4 bd b8 85 25 bf 4e 5e f4 bd
       0.26182342 -0.10391767 -0.64657164 -0.1193205
000060 7b bb 5a be 43 0d 54 be ef fe 3d 3f dc 64 91 bf
       -0.2136058 -0.20708184 0.7421712 -1.1358905
000070 66 a6 ce 3e 80 55 28 bd 9e 0a 91 bd 30 a2 3e 3e
       0.40361327 -0.041097164 -0.07082103 0.18616557
000080 73 53 58 bd f4 53 b3 bd 32 4e 6e be 67 46 05 3e
       -0.05281396 -0.08756247 -0.23272017 0.13015138
000090 fc 36 bf 3e f1 f3 47 bf 5f a5 9f 3e 45 68 c5 3e
       0.37346637 -0.781066 0.31180856 0.38556114
0000a0 ea f9 29 bf f1 7c ae 3e 5d 12 40 3e e0 6a fe be
       -0.66396964 0.34079698 0.18757005 -0.49690914
0000b0 b0 0e 9d 3e 79 19 d9 be c8 bc 85 3e f9 fc a2 be
       0.30675268 -0.42402247 0.2612059 -0.31833628
0000c0 69 bb 0d 3e b8 1f 3d 3f 6a a9 89 be 46 dd b6 be
       0.13841023 0.73876524 -0.26887065 -0.35715693
0000d0 1d c5 14 3f fb 1f 33 be 0b bd 0e bf 3b 92 0b 3f
       0.5811327 -0.17492668 -0.55757207 0.54520005
0000e0 7a 9e 95 3d 4c 16 df be b7 44 6c 3e bb 54 f6 3c
       0.07305618 -0.435717 0.23073088 0.0300697
0000f0 3c f7 d1 3d b4 9e b4 be e5 7b 1a 3e 06 53 1b 3e
       0.10252234 -0.3527733 0.15086325 0.1516839
000100 7b ba d7 be 89 e9 8e be 01 e2 97 bf 85 98 4c 3f
       -0.4213446 -0.27912548 -1.1865846 0.79920226
000110 81 c7 11 bf c4 fd 52 3e 4e 0b cd bd c6 0e 24 bf
       -0.56945044 0.20604616 -0.10011922 -0.6408504
000120 59 c8 1d 3e 45 ca 9c bc 36 8a 9f be 9c 11 90 bb
       0.15408458 -0.019139418 -0.31160134 -0.0043966305
000130 2c b1 c8 be 96 d6 9a 3c ec d4 6b 3f 48 48 6a c0
       -0.3919767 0.01890115 0.9212177 -3.6606617
000140 77 24 31 40 2f 2c 17 3d 5f 0c 70 bd ff fc 2d bc
       2.7678506 0.03690737 -0.058605548 -0.010619401
000150 bc d3 2d be 93 84 c5 3e a6 df 0a be dd 44 37 3e
       -0.16975302 0.3857771 -0.13561878 0.17897363
000160 50 18 2b 3d 4f 6d 39 be 35 87 69 3f 31 f2 7e 3f
       0.041771233 -0.18108104 0.91221935 0.99588305
000170 37 f7 ac be 6b fa ee be be cd ef 3d 00 59 f3 be
       -0.3378236 -0.4667543 0.11709164 -0.4752884
000180 bf 47 a7 be 2a 64 f8 3e 32 f9 0a 3e 37 47 28 be
       -0.32671925 0.4851392 0.13571623 -0.16433416
000190 1e bc eb be 24 39 3a 3f de 12 08 3f 8c 31 8a bf
       -0.4604196 0.7274344 0.5315379 -1.079637
0001a0 d0 e9 b1 3e cf 43 1d 3f 2a 90 27 bf c6 d0 f0 3c
       0.34748697 0.6143159 -0.6545435 0.029396426
0001b0 a2 12 f7 3e a0 58 f7 be 87 24 63 3f 0e 5b 94 be
       0.48256403 -0.48309803 0.8872761 -0.2897572
0001c0 00 33 6e bf f8 ac 5e 3e cd 83 5e 3d 73 db b2 be
       -0.9304657 0.2174567 0.054324914 -0.3493305
0001d0 f7 ee 8d 3e 9b dc 91 3e f4 42 00 bf f3 f7 05 3e
       0.27721378 0.2848862 -0.5010216 0.13082866
0001e0 b8 71 0a bb bc 88 48 bd 9c 41 24 be 90 be 68 3e
       -0.002112491 -0.048958525 -0.16040653 0.22728944
0001f0 ff 7b 7f 3e 4b 3d 30 3f c7 b1 35 3d c2 38 32 bf
       0.24949645 0.68843526 0.044358995 -0.69617856
000200 df 48 a1 3e cd ae dd be 77 29 18 3f 5d bd 35 bf
       0.3150091 -0.43297425 0.5943827 -0.7099207
000210 a5 fd 2d 3f 58 df ee be 12 d5 0a 3e 7d 7c f8 3e
       0.67965156 -0.46654773 0.13557842 0.48532477
000220 4b d9 5f 3e 64 55 6e 3e 4d 28 a3 bd f5 4a c9 bd
       0.21860234 0.23274761 -0.07966671 -0.0982875
000230 18 86 e7 3e 0e b0 2e 3e 09 29 67 bf 02 f6 d9 3d
       0.45219493 0.17059347 -0.9029699 0.106426254
000240 30 ad 1f 3f eb 50 3b be 40 f7 35 3c 4d b7 38 bd
       0.6237364 -0.18292587 0.011106312 -0.045096684
000250 98 22 1f 3f 6d 17 0c be 12 2a c3 3d fa ff 8f be
       0.6216216 -0.13680811 0.09529509 -0.28124982
000260 52 f3 59 bf 45 04 19 3f 29 ab 73 bf 45 9e dd bf
       -0.851369 0.5977214 -0.95183045 -1.7313925
000270 50 f7 c6 bc 09 31 26 3f ed 8b 8c 3c 86 16 12 3f
       -0.02428785 0.6491857 0.017156566 0.5706562
000280 75 61 1a 3f 9f 16 45 be 96 e9 e8 3d a7 86 87 bd
       0.6030496 -0.1924691 0.11372678 -0.0661748
000290 b1 b6 8a 3f f0 4c ea be 7f 83 16 bf e7 c5 5d 3e
       1.0837003 -0.45761824 -0.587944 0.21657525
0002a0 6c e7 cc 3e 12 f2 2f bd 2e d3 dd be 14 33 6c 3e
       0.4002031 -0.042955466 -0.4332518 0.2306636
0002b0 e2 ea 1e 3c 4a 3d ab 3d 2a cd 23 bf 0b a6 90 bf
       0.009699555 0.08361299 -0.6398493 -1.1300672
0002c0 f1 5f aa 3f e2 bc 37 3f 69 c5 12 bf a9 ed e2 be
       1.3310529 0.7177259 -0.57332474 -0.44321945
0002d0 8f 82 4b 3f b2 7b 52 3e 15 00 23 bf 86 cc 09 be
       0.7949609 0.20554999 -0.63672 -0.13456926
0002e0 2a f9 0b 3e 25 c3 1e 3e b4 e9 ea be f8 8f 3b 3f
       0.13669267 0.15504129 -0.45881426 0.73266554
0002f0 dc 65 ea be 40 0e 66 bf 07 03 80 be 1f ed f4 3e
       -0.45780838 -0.89865494 -0.2500231 0.4783716
000300 bc 35 2c bf 24 ff 30 be 98 7a 48 bc 46 fc c5 3e
       -0.6726949 -0.17284828 -0.01223626 0.38669032
000310 15 ea 48 bf 42 8d b1 3e 89 83 b5 3d 72 d1 2c bf
       -0.7848218 0.34678084 0.08862979 -0.6750709
000320 ad e7 8c 3e 4b ce 74 3d 13 8a f2 be fb 81 d0 bd
       0.27520505 0.05976705 -0.47370967 -0.10181042
000330 12 93 5b be f6 e5 8e bf 68 c2 bc 3f 74 ed 1d 40
       -0.21442822 -1.1163929 1.4746828 2.467618
000340 3a ec cc 3f 61 3d 26 3f ad 69 a3 bd 64 eb 2f 3e
       1.6009591 0.64937407 -0.079791404 0.17179638
000350 59 2f 26 be 4d f6 9a 3e c2 b0 07 3f 55 8c 42 bd
       -0.16228999 0.30266038 0.53004086 -0.047497112
000360 e7 5e bd 3e d0 5a 98 3a 8d 87 72 bf 36 fc 1d bf
       0.36986467 0.0011623744 -0.94738084 -0.6171297
000370 e4 aa 33 3e 30 c9 a8 be b9 75 ab 3e eb c3 3e bf
       0.17545658 -0.32965994 0.33488253 -0.745177
000380 c2 0e 65 bd b3 48 8b 3e 44 57 aa be 31 0f 64 be
       -0.055922277 0.27203903 -0.33269703 -0.2227142
000390 4d 3f 6e bf 76 d4 70 be da 8f 0f 3e af 28 01 bd
       -0.9306534 -0.23518547 0.14019719 -0.03153294
0003a0 7f 86 23 3f 26 04 df be 5b 68 29 bf ee 25 22 3f
       0.638771 -0.43557853 -0.6617486 0.63339126
0003b0 92 26 12 3c da 6c 1e bf 85 9a 73 3f 7e e1 5f 3f
       0.008920329 -0.61884844 0.95157653 0.8745345
0003c0 ba f9 52 bf 66 55 96 3e cd 68 b2 be cb 35 db be
       -0.824123 0.2936203 -0.34845582 -0.42814478
0003d0 a4 9b a3 3e ba 3d 2c 3f 9a 35 f5 3d 18 cd 13 bf
       0.31954682 0.6728169 0.11973114 -0.57734823
0003e0 af 0b 11 be 9f b6 0c 3e dd 4e 2f bf 3c 7e 14 3f
       -0.14164613 0.1374154 -0.6847971 0.5800512
0003f0 fb f8 d9 be c4 b2 69 3f 20 31 ae 3e ab 84 6f be
       -0.4257277 0.912884 0.34021854 -0.23390453
